pytorch_cifar/toycnnv1_checkpoint/ckpt.pth (torch, 911687 bytes, 10 tensors)

features.0.weight f4 [32, 3, 3, 3]
000000 64 15 41 be e9 d7 80 be 47 38 73 be 87 b8 04 be
       -0.18855816 -0.25164726 -0.23751937 -0.12961017
000010 17 4a f2 bd ce 86 dc bc 75 17 bd 3d 3e 1b d9 3d
       -0.11830538 -0.026919749 0.0923299 0.10600899
000020 cf 84 33 3e 39 83 04 be 87 aa 29 be c6 f9 df bd
       0.17531131 -0.12940682 -0.16568957 -0.109363124
000030 2c 13 83 bb 8c 28 be 3c 33 fd 03 3e 6e c8 5d 3e
       -0.004000088 0.023212694 0.12889557 0.21658489
000040 5b 6e 44 3e 7d 87 60 3e e9 ef cf be f7 f6 ba be
       0.19182722 0.21926685 -0.40612724 -0.36516544
000050 ff fc 48 be 4b 44 08 be 5c 35 d0 ba ba db 4b 3e
       -0.1962776 -0.13307302 -0.0015885043 0.19908038
000060 d3 c2 9b 3e 13 cc a2 3e 3c 3f c3 3e 4f 35 6c be
       0.30422077 0.3179632 0.38134181 -0.2306721
000070 47 48 2e be 11 05 43 be 61 3f 5e be 13 6f b9 be
       -0.17019759 -0.19044901 -0.21703865 -0.36217555
000080 09 c3 19 be 3a bb d8 bd a5 62 b3 be 82 11 4c be
       -0.15015806 -0.10582586 -0.35036197 -0.19928554
000090 f3 f7 81 bd b2 49 0f bc 5f 25 2b bd 93 78 ce bd
       -0.06346121 -0.008745598 -0.041783687 -0.100815915
0000a0 f0 e0 66 be c5 b4 37 bc 87 39 53 bd f0 94 88 be
       -0.22546744 -0.011212532 -0.051568534 -0.2667613
0000b0 0d 6e c3 bd 01 77 02 3e 44 45 55 3e 16 82 18 3e
       -0.09542475 0.12740709 0.20827204 0.14893374
0000c0 10 02 bb 3d 70 1d 5c 3b c0 b3 56 3e ea ca dd 3d
       0.09131253 0.0033586882 0.20967007 0.108297184
0000d0 d6 39 9c bd dc e0 d9 3d c4 16 63 be 28 05 39 3f
       -0.07628219 0.10638592 -0.22176653 0.7227349
0000e0 60 c8 01 bf 01 2f e2 be a0 04 b8 be 2b 3c 3f 3f
       -0.50696373 -0.44176486 -0.3594103 0.74701184
0000f0 65 f3 2c 3f 14 68 00 bf 70 ad 82 bc 04 ae 8a be
       0.6755889 -0.5015881 -0.015951842 -0.27085888
000100 46 9b 34 3f 22 19 8d be 05 9b dd be 1e fd 03 bf
       0.7054943 -0.27558237 -0.43282333 -0.515581
000110 41 01 36 3f 90 e9 4e 3f d2 01 26 bf 04 43 ba be
       0.71095663 0.8082514 -0.6484653 -0.36379254
000120 8f 9a 4a be 26 f2 43 3f ed 53 ab be 8f 0f fe be
       -0.19785522 0.76541364 -0.33462468 -0.49621245
000130 dc 3c 9f be 57 97 43 3f 7b e1 0d 3f c9 4a 02 bf
       -0.3110112 0.764028 0.5542218 -0.50895363
000140 f3 a5 c6 bd e8 88 d8 3d 43 6e 69 3f 08 3e 44 be
       -0.09699621 0.10572988 0.9118387 -0.19164288
000150 06 63 76 3f 31 a4 d7 be 1d e9 28 bf 15 86 37 3c
       0.9624485 -0.42117456 -0.659807 0.011201401
000160 3e b2 42 bf c2 b5 31 3e 97 f7 2b be 19 49 03 3f
       -0.76053226 0.17354491 -0.16793667 0.51283413
000170 06 a9 8a be eb 76 05 3f 22 d0 0c bf 26 28 90 be
       -0.2708208 0.5213458 -0.55005085 -0.2815563
000180 9d d9 79 be b2 4d 06 bf f5 43 22 3f a7 5d 05 bf
       -0.24399419 -0.52462304 0.63384944 -0.5209603
000190 ff 98 b3 3e 06 db 3d be 6d 82 80 3e d8 33 91 be
       0.35077664 -0.18540582 0.25099507 -0.28359866
0001a0 4e 18 71 bd a6 ce 86 bb 48 92 4e bb 69 9a 28 3f
       -0.05886107 -0.00411399 -0.0031520296 0.6586061
0001b0 ea e0 c7 3d 8e ba ba be 71 4b 34 3e c0 bc b4 3e
       0.09759696 -0.36470455 0.17606904 0.35300255
0001c0 6b 9f 3c bf 28 15 eb 3e e8 3d 8c 3e cc ed 30 bf
       -0.7368075 0.45914578 0.2739098 -0.6911285
0001d0 94 75 ca 3e e8 e5 2e 3e d5 f1 f7 be fe a5 55 3e
       0.3954283 0.1707989 -0.4842669 0.20864102
0001e0 c6 af fc 3e df b3 51 bf fd 14 0e 3f 1a 25 b9 3e
       0.49352854 -0.81915087 0.55500776 0.3616112
0001f0 99 c3 4d bf d8 72 b6 3e 91 07 22 3e cb fc b8 be
       -0.80376583 0.35634494 0.15823199 -0.36130366
000200 b2 3c dd 3d c1 fa e4 3e 0d e4 3a bf ec 74 c7 3e
       0.10802592 0.4472256 -0.7300423 0.38956392
000210 00 fd d3 3e 94 a2 28 bf 25 c9 86 3e f1 17 79 bf
       0.4140396 -0.65873075 0.26325336 -0.97302157
000220 47 4a 5e bf 92 ba 8e be d2 05 12 bf 8a c8 e7 3c
       -0.8683209 -0.27876717 -0.5704013 0.028293867
000230 85 84 26 3f 90 bf 87 3e 36 52 59 3f 8d 16 7f 3f
       0.6504596 0.26513338 0.8489107 0.99643785
000240 c5 ba bd 3e 32 e3 83 3e 66 bf 98 3d e3 0c fb 3d
       0.37056556 0.25759274 0.07458381 0.12258317
000250 53 fc f9 bc fe f8 5c be e8 e3 bf bd 1e e2 84 be
       -0.030515825 -0.21579358 -0.093696415 -0.25953764
000260 4a 1a a1 be e5 d8 1b 3f 95 84 1e 3f e9 04 64 3e
       -0.3146537 0.6087783 0.61921054 0.22267498
000270 b7 1f ea 3e 27 52 a0 3d 5c e6 d2 be 9c c4 35 be
       0.45727322 0.07828169 -0.41191375 -0.17750782
000280 62 9b 22 bf 1d 2d 40 bf e2 41 ed bd 01 8e 0b be
       -0.63518345 -0.7506884 -0.11584832 -0.13628389
000290 e0 bf 7a be da 7f 9d bd bf 5f 2e 3e ad 1b 27 3e
       -0.24487257 -0.076904014 0.17028712 0.16319151
0002a0 80 03 89 be 62 ec ea 3c cc a2 45 3d 19 e0 83 be
       -0.26760483 0.02867717 0.04825096 -0.2575691
0002b0 28 c2 01 be ab dd 1d be fa 0a 01 be fd 8b 89 3e
       -0.12671721 -0.15416591 -0.12601843 0.26864615
0002c0 4a 65 a0 3e 44 22 3f be c4 55 5c 3e 20 4b 8c 3e
       0.31327277 -0.18665415 0.21517092 0.27401066
0002d0 27 05 88 be e2 ac 71 be 07 d2 91 be 37 14 49 be
       -0.2656643 -0.23601106 -0.2848055 -0.19636618
0002e0 a3 ad 1f 3d 8d 01 9d 3d 3f 60 5d be 0e df f2 3c
       0.038983952 0.076663114 -0.21618746 0.029647376
0002f0 d3 28 ac 3d 6d 3b 39 3e eb c9 19 3f ef dc 6d 3f
       0.08406224 0.18089075 0.6007373 0.9291524
000300 f6 4a 8d be e3 52 6f bd 57 b7 90 3e fe fe 61 bf
       -0.27596253 -0.058428656 0.28264877 -0.8827971
000310 ee 61 19 bf 6f ba b3 be d1 39 1a be 5a cc ca be
       -0.59915054 -0.35103175 -0.15061118 -0.39609033
000320 38 b6 07 be 76 7f ad 3e 4a c4 56 bd 6b 23 ab be
       -0.13253105 0.33886307 -0.05243329 -0.3342546
000330 29 39 96 3e 4a d6 ec 3e 0f 35 f2 3d ac eb 8c be
       0.29340485 0.4625724 0.118265264 -0.27523553
000340 86 54 4d bf 5b 3c 20 bf f7 b7 0d 3f e6 90 84 bd
       -0.802071 -0.62592095 0.55358833 -0.0647295
000350 f2 d3 18 bf e8 e0 2a 3f 80 47 55 3f c4 58 b7 3e
       -0.596984 0.6674943 0.83312225 0.3580991
000360 de f2 88 be 68 aa f3 3d b3 31 d6 bc 44 6f ba be
       -0.26747793 0.11897737 -0.026146745 -0.36413014
000370 f7 79 40 bd e5 6c 15 be 89 ee de bd b2 83 3b be
       -0.046991315 -0.14592321 -0.10885341 -0.18311957
000380 d3 e4 a6 be 56 84 91 3d e5 b3 1e 3f 17 9d c6 3e
       -0.32596454 0.07105319 0.6199325 0.38791725
000390 bc 36 5d be 86 1f c7 3e 5d 7c b4 3e 70 0a 50 be
       -0.21602911 0.38891238 0.35251132 -0.20316482
0003a0 fe c2 ce ba 01 04 85 bb e5 ff b3 bd 7b 9c aa 3e
       -0.0015774665 -0.004059315 -0.087890424 0.3332251
0003b0 e2 af 30 3e 26 d8 aa be 18 88 01 3e da 94 bd 3d
       0.17254594 -0.33368033 0.12649572 0.09256907
0003c0 0e f3 70 be c6 3d 19 be f7 42 5a be 97 65 0c bf
       -0.23530218 -0.14964971 -0.21314608 -0.54842514
0003d0 68 78 37 3e bc a7 35 3f 86 3a 5e bf 98 00 71 bc
       0.17917025 0.7095907 -0.8680805 -0.014709614
0003e0 cf d1 44 3f 84 3f 5b bf be 65 5f be 1b 29 53 3f
       0.7688264 -0.8564379 -0.21816155 0.82484597
0003f0 26 e8 4b bd b8 52 68 3d b6 7d 33 3d 68 29 18 be
       -0.04978194 0.05671951 0.04382106 -0.14859545

features.0.bias f4 [32]
000000 70 07 ec be 3b 80 75 bf 35 7c fd bd b0 b0 c3 bd
       -0.46099424 -0.9589879 -0.12377206 -0.09555185
000010 c3 e4 17 be ca d6 5a bd 84 7d 8a bf 4c 61 16 bd
       -0.1483336 -0.053427495 -1.0819554 -0.036713883
000020 17 97 50 bf 4e 62 0f be 9e a5 18 be 6a c7 4b bf
       -0.81480545 -0.14002344 -0.14906928 -0.79601157
000030 2c f3 ad 3e 23 af 31 be fc 95 96 be 01 39 86 be
       0.33974588 -0.17351966 -0.29411304 -0.26215366
000040 9b f7 34 bf f3 92 f0 bd d2 21 56 bf b0 c7 21 3f
       -0.70690316 -0.11746778 -0.83645356 0.63195324
000050 f2 60 9d bd 14 60 52 bf 46 c3 af be 34 fc 4d be
       -0.076845065 -0.82177854 -0.3432867 -0.20115739
000060 33 29 96 b9 fa e8 50 be 33 66 8a bd 25 48 97 be
       -0.00028640925 -0.20401374 -0.06757774 -0.2954723
000070 ea e0 98 bd 80 41 42 bf b3 75 4d be 0f 88 0b b2
       -0.07464774 -0.75881195 -0.2006443 -8.121801e-09

features.3.weight f4 [64, 32, 3, 3]
000000 79 53 43 3d 12 2b 3e 3d 62 06 06 3e 6a 18 e7 b9
       0.047687028 0.046427794 0.13088372 -0.00044077943
000010 15 1c f9 3c b0 a5 b5 3d 91 2f 9f 3d 7d fa f7 3d
       0.030408898 0.08869493 0.077727444 0.12108324
000020 a1 ec 45 3c bd ad 09 be b6 76 b3 bd c1 e7 24 bc
       0.0120803425 -0.13445182 -0.08762877 -0.01006502
000030 db 54 c7 bd 93 e7 8b bd b9 05 ae 3d a7 76 06 bd
       -0.09732982 -0.06831279 0.08497185 -0.032828
000040 f8 45 6e 3d 43 ce d3 3d e4 76 d1 bd 0d 01 4b be
       0.058172196 0.10342076 -0.10227755 -0.1982462
000050 fe db 32 be b5 49 0e be b3 c1 2f be 32 72 3e bc
       -0.17466733 -0.13895305 -0.17163734 -0.011623906
000060 cb ae 2b bd b3 bb 44 3d e4 5b 63 3d 14 18 44 be
       -0.041914742 0.048030566 0.055507556 -0.1914981
000070 f8 e1 fa bd b7 ba 2d 3e e1 3d fd bd 16 e6 2b 3d
       -0.12250131 0.16965757 -0.12365318 0.041967474
000080 a5 a0 c9 3e 6e 01 02 bd ae e4 37 3e b8 4f 31 3e
       0.39380375 -0.031739645 0.17958328 0.17315567
000090 85 d9 2d be 19 a0 92 be 62 e7 e8 bd a1 1d 68 be
       -0.16977508 -0.2863777 -0.11372258 -0.22667553
0000a0 78 dd 2c be 52 ba b5 bb eb 5c eb bd e7 4a af 3d
       -0.16881359 -0.0055458928 -0.11492332 0.08559208
0000b0 6e bd 0e 3d 09 5a fa bd e4 ae b0 bd b1 4a 3d 3e
       0.034848623 -0.12224204 -0.08627108 0.18485524
0000c0 90 aa 34 be d4 b2 ab bb c1 e8 ab 3e d1 96 06 be
       -0.1764319 -0.005239824 0.33576015 -0.1314347
0000d0 79 24 32 3e 90 f9 91 3e 21 53 7c bb d9 a4 28 bd
       0.17396726 0.28510714 -0.0038501697 -0.041172836
0000e0 15 65 02 3d 49 89 a8 bc 05 f4 46 bd e6 2b 5e 3d
       0.03183468 -0.020573275 -0.04857256 0.054241084
0000f0 58 d6 7c bb d1 6e 10 bc b0 ec cc 3d 4b 72 92 3b
       -0.0038579907 -0.008815483 0.10006082 0.004469191
000100 d2 f2 a1 bd 6c 32 30 be 37 a9 c8 b9 88 c7 88 bd
       -0.079076424 -0.17206734 -0.00038273048 -0.066786826
000110 eb be 2f bd b0 fd bb 3b 94 7e a7 bd e5 3b 54 bc
       -0.042906683 0.005737029 -0.0817844 -0.012953733
000120 33 e9 5a 3d c4 4e 05 3c da a7 8c bd c1 c2 a1 3a
       0.053445052 0.008136455 -0.06867953 0.0012341366
000130 31 ab 54 bd e9 d4 b0 bd f0 d4 22 bd 47 53 fd bd
       -0.051921073 -0.086343594 -0.039753854 -0.123693995
000140 8a b6 87 bd cf 80 45 bd 75 bf 23 be 10 84 84 bd
       -0.066266134 -0.048218545 -0.15991004 -0.064705014
000150 5d 0d e0 bd 57 7f 2b bd 64 ae f8 3d f1 56 cc bc
       -0.10940049 -0.041869488 0.12142637 -0.0249438
000160 2b 02 0b 3e b7 b5 1c 3e 83 58 fb 3c e4 37 f4 3a
       0.13575046 0.15303694 0.030681854 0.0018632379
000170 3b f3 80 bd 37 0b 35 3a 80 67 ec bd 38 a6 e3 bd
       -0.062963925 0.0006906273 -0.115431786 -0.11115688
000180 d5 de 6f bd e4 8b 05 be 0d 6c fc bc af 00 b9 3c
       -0.05856212 -0.13041645 -0.030813241 0.022583334
000190 52 1a 23 3c 4a 0b 45 bc 4d 44 0f 3c d8 f3 54 bb
       0.009955006 -0.012026617 0.0087443115 -0.0032493975
0001a0 c1 cf e2 bc fb 54 38 bc 71 f6 ce bc 6a 0a e2 bc
       -0.027686955 -0.01125073 -0.025263997 -0.027592856
0001b0 10 db b6 3c d2 89 bb 3c 16 33 af 3b e0 fe 4c 3d
       0.022321254 0.022892866 0.005346666 0.050047755
0001c0 73 3d a7 3c 87 ce d5 3b 8e 23 58 3d ef 51 b4 3d
       0.020415043 0.006524864 0.052768283 0.0880469
0001d0 3c 17 c1 3d e0 97 20 be d5 ae 26 be 79 ed 37 3e
       0.0942826 -0.15682936 -0.1627763 0.17961682
0001e0 d5 d7 45 be 80 23 89 3d 12 b4 98 3e 12 b7 de 3c
       -0.19320615 0.06696224 0.29824883 0.027186904
0001f0 36 a9 88 3e d9 74 d0 3d 2b ae 05 bd cc a7 97 bc
       0.26691598 0.10178537 -0.032636803 -0.018512629
000200 e2 63 42 3d 0a d8 c7 bd 4a f0 c8 bc 0b d7 39 3d
       0.047458537 -0.09758003 -0.024528641 0.045371097
000210 db f7 f6 3b bc 7a 90 3d d5 4f 38 3d 30 43 04 3d
       0.007536871 0.0705466 0.04499801 0.032290637
000220 82 98 0a 3d 2f 04 33 3d 19 ab e4 3b 5d d9 8f 3b
       0.03383685 0.04370516 0.0069784042 0.0043899254
000230 17 49 6c 3d b2 f4 9a bd 9a d4 90 bd ac cc 26 3c
       0.05768689 -0.07566203 -0.070718005 0.0101806335
000240 4a 35 6b bd f7 7c 93 bd ee bc 0c 3e 6d 75 cc bd
       -0.057423867 -0.072015695 0.13743946 -0.09983335
000250 a9 76 61 bb f4 55 15 3e 22 32 4c bd 9c e0 50 3e
       -0.0034403002 0.1458357 -0.049852498 0.20398182
000260 cf 2d 88 bb d7 33 bc bd c3 37 48 be 26 d9 a2 bd
       -0.0041558514 -0.09189575 -0.19552521 -0.07951574
000270 3e 8a fe bd 2b cd d8 bd a0 51 bd 3d 63 ab 86 bd
       -0.12428711 -0.10586008 0.09244084 -0.06575658
000280 f7 bd 05 3e ae 40 c6 3d 2b 28 3d 3b 24 fb 32 bd
       0.13060747 0.096803054 0.0028863053 -0.043696538
000290 1b 51 e7 bd c7 1b 13 bd 91 dd d0 bd eb 88 06 be
       -0.112947665 -0.035915162 -0.101985104 -0.13138168
0002a0 77 61 d4 3c 7b 73 e7 bd af 3c bb bd f5 e2 ab bd
       0.025925381 -0.11301323 -0.09142434 -0.08392898
0002b0 5e 43 94 bd 01 e0 8f 3b 3f c8 52 bd 64 9c b9 3c
       -0.07239412 0.004390717 -0.0514605 0.02265758
0002c0 29 e8 36 3d d3 84 aa 3d 74 8f 11 3e 5c 26 56 bd
       0.044655 0.083261155 0.1421488 -0.052282676
0002d0 52 12 57 be 60 83 82 be 1c 12 f2 3d 68 b1 51 be
       -0.21003082 -0.25490856 0.1181986 -0.20477831
0002e0 4b 8f c9 bc 34 c7 87 3e 37 de 3c bc 6c eb 26 3e
       -0.02460446 0.26519167 -0.0115275895 0.16300744
0002f0 e4 91 58 3d 31 83 39 3d 08 cb b1 bb 48 07 a0 bc
       0.052873507 0.04529113 -0.0054258145 -0.019534722
000300 e5 d1 1e 3c 05 71 fc bc a0 c4 07 bc 10 66 a1 bd
       0.009693597 -0.03081561 -0.008286625 -0.07880795
000310 e3 49 aa bd 13 ba 75 3d 3b d7 ed 3d ce fd 54 3d
       -0.08314874 0.059991907 0.116133176 0.05199986
000320 a4 17 b3 bc 30 80 63 bd 46 bc ea bd 31 85 8b bd
       -0.021861859 -0.05554217 -0.114616916 -0.068125136
000330 3e 84 27 bd 12 83 dc bd 5c 67 32 bd ef ca 17 3c
       -0.0408976 -0.10767187 -0.043555602 0.009264692
000340 1e 4f f0 3b bb 4d 77 3d 19 a7 42 bd 61 12 09 bd
       0.0073336503 0.060376864 -0.047522638 -0.033464793
000350 ec 4b c7 3c e6 4e 96 bd c0 f5 84 3d c9 ec bf 3d
       0.024328195 -0.073392674 0.064921856 0.09371335
000360 9e 53 97 b8 18 32 81 b8 9d 90 0d b8 5c a5 75 b8
       -7.215816e-05 -6.16053e-05 -3.37517e-05 -5.8566555e-05
000370 99 bc 3c b8 6a 35 39 b7 22 32 19 37 b4 0c 23 38
       -4.4998338e-05 -1.1039296e-05 9.131183e-06 3.887406e-05
000380 0e 14 8c 38 d3 a7 d5 bc ac 88 c3 bd 36 7b b1 bd
       6.679456e-05 -0.026081001 -0.095475525 -0.08666079
000390 ce c0 e2 bd 1b 93 06 be 07 75 df bd 3f 3a a7 bc
       -0.11071931 -0.13142054 -0.10910993 -0.020413516
0003a0 21 4b de bd c6 57 bf bd c0 05 8a 3d 2e ef 32 bd
       -0.108541735 -0.09342913 0.06739378 -0.04368513
0003b0 20 67 28 bd 20 3c 9b bd dc fd 0d be 0c ab c0 bd
       -0.041113973 -0.07579827 -0.13866371 -0.094076246
0003c0 37 f4 87 bc be bf 86 bd 19 8b 98 bd e3 fa 0d bc
       -0.016595943 -0.06579541 -0.07448406 -0.008665773
0003d0 22 21 a9 3b 82 1c 9c 3c 23 24 74 bc 40 42 df 3a
       0.0051614204 0.019056562 -0.014901194 0.0017033294
0003e0 af 5a 48 3c d0 73 86 bc 81 df 21 bc a4 d7 5b bb
       0.012228652 -0.016412646 -0.009879948 -0.003354528
0003f0 bb 02 ea bd d7 fa 16 be c6 7d 9c bc 15 f2 de bd
       -0.11426302 -0.14744125 -0.019102942 -0.10886017

features.3.bias f4 [64]
000000 f1 fa 3b 3e c1 f5 d4 3e 75 b8 01 3e f7 0b 57 3d
       0.18357445 0.41593745 0.12668021 0.052501645
000010 95 4c b1 be 9d 15 23 be e7 b4 75 b0 5e 03 01 3c
       -0.3462874 -0.15926214 -8.938756e-10 0.007874338
000020 4b 50 1f be d1 eb db 3c 24 aa 22 3f 70 3b af 3e
       -0.15557973 0.026845844 0.63540864 0.34225035
000030 7a cb ab b0 b5 b8 18 3e d7 92 4d 3f e6 7a cb 3d
       -1.2499719e-09 0.1491421 0.80302185 0.099355504
000040 d2 4d eb 3d 0a 65 08 3f d3 1c 75 bc ae bf 28 3f
       0.114894524 0.53279173 -0.0149604855 0.6591748
000050 5c 05 f1 3e 9a 1d 9c 3e ce b6 2f bd 71 0d 41 3d
       0.470744 0.30491334 -0.042898946 0.04713196
000060 d4 12 9f 3e 23 69 1b 3f 2f 1e 9c 3d d6 53 9e 3d
       0.31069052 0.607073 0.076229446 0.07730834
000070 06 1a 89 bd 31 9d e6 3d 7e 38 8b 3e a2 90 ff be
       -0.06694417 0.11260451 0.27191538 -0.49915034
000080 10 01 17 3e 48 e3 77 3e e5 9f 95 bd a4 01 89 3e
       0.14746499 0.24207795 -0.07305888 0.26759064
000090 ba 06 bc bd 52 06 36 3e 50 93 04 be 75 8e 11 be
       -0.091809705 0.17775849 -0.1294682 -0.142145
0000a0 8c a9 10 be 84 74 c2 3f a2 7a 34 3e 30 3b 85 3e
       -0.14127177 1.5191808 0.17624906 0.2602172
0000b0 92 b5 c9 3e f0 6f 68 3e 8a 62 ae 3d b4 51 2e 3e
       0.3939634 0.22698951 0.085148886 0.17023355
0000c0 46 94 3b 3d 31 fb 92 be 08 0f 5e bd f0 56 79 3d
       0.0457957 -0.2870727 -0.054213554 0.060873926
0000d0 99 1c 6f 3e 16 f9 a3 3d dd 87 37 bc 04 88 08 3e
       0.23350753 0.08006494 -0.011201826 0.13333136
0000e0 3d 84 17 3d 8b d2 07 bd 33 11 0d 3f 5c 7a 84 bd
       0.036991347 -0.033159774 0.5510437 -0.06468651
0000f0 a2 76 72 be 5e 04 cf bc 63 ec b0 3e 13 ee a6 3e
       -0.23678067 -0.025270637 0.3455535 0.3260351

features.6.weight f4 [128, 64, 3, 3]
000000 79 d2 4d 3b 91 e5 94 bd 4b 93 8e bd 14 7e bb 3c
       0.003140597 -0.07270349 -0.06961688 0.022887267
000010 56 52 27 bc ef 1c 1f bd d1 10 52 bd c5 83 99 bc
       -0.0102125015 -0.038845953 -0.05128557 -0.01873959
000020 f4 b4 a1 3d 0b 67 1d bd 37 29 80 bc c2 b4 fc bc
       0.07895842 -0.038428348 -0.015644653 -0.03084791
000030 bf 71 0d bd f8 a2 b8 ba be 8c 20 3d 9d 60 11 bd
       -0.034532305 -0.0014086654 0.039196722 -0.03549253
000040 56 31 3b bd 90 8e fa bc fe a1 1c bd 1e ee 87 bd
       -0.045701347 -0.030585557 -0.038240425 -0.06637214
000050 fe 93 9a bc 12 2d 9d bd 89 81 bf bd cd 43 26 bd
       -0.018869396 -0.07674612 -0.09350879 -0.040592004
000060 ac 48 22 3d c3 2a f6 3c 33 88 8f 3d a0 4b 0b bb
       0.039620087 0.030049687 0.070084 -0.0021254793
000070 54 25 04 3c d4 a8 05 3b ca d7 21 3d 48 bb 09 3c
       0.00806554 0.002039482 0.039512433 0.008406468
000080 a0 d0 ed 3c 0d 14 92 3c ce 19 0b bb 6a 1b 28 bd
       0.029030144 0.017831827 -0.0021225098 -0.04104177
000090 5a c1 b2 bd 99 72 ad bd ee de 19 3d 8f 64 e6 bb
       -0.08728285 -0.084691234 0.037566118 -0.0070310305
0000a0 d5 75 be 3b 6b 7c 57 3c 53 4c 88 bd 1e 66 0d bd
       0.0058123865 0.013152222 -0.06655183 -0.034521215
0000b0 67 39 a1 bd 0e 17 3b bc 3d 8f 92 bd 2b de 93 bd
       -0.07872277 -0.011419071 -0.07156227 -0.072201096
0000c0 71 17 00 bd d7 66 d5 bd bd 28 e1 bd 37 de 5e bd
       -0.031272355 -0.10420006 -0.10994098 -0.05441114
0000d0 d1 8c d0 bd aa 57 98 bd fe 7d e5 2e b2 50 37 2e
       -0.101831086 -0.074385956 1.0436095e-10 4.1681054e-11
0000e0 21 a3 40 2e ca 99 e9 2e f0 ed e6 ad a5 e3 b0 2f
       4.3800633e-11 1.0622932e-10 -2.6253638e-11 3.2175965e-10
0000f0 d2 6d 27 2e 95 1a ea 2e 47 bb 15 2f a3 7c 63 3d
       3.8068944e-11 1.064581e-10 1.3618005e-10 0.055538785
000100 1a 1d 4e 3b 4a 56 6e bd 15 70 ab 3d 31 f4 40 bd
       0.0031450451 -0.05818776 0.08370987 -0.04710788
000110 c1 c3 32 bd c9 14 58 3c e1 96 32 bd b4 c9 63 3d
       -0.043643717 0.013188549 -0.04360092 0.05561228
000120 f6 71 38 bd b2 9d bb bc ea de 0f bd 40 fe 5f bd
       -0.045030557 -0.022902343 -0.035124697 -0.05468583
000130 ba ba 9f bb e5 f0 44 3d 3f 85 91 3c d9 23 85 3d
       -0.0048745545 0.048081297 0.017763732 0.06500978
000140 da 95 66 3e 20 ae b0 bd 61 31 31 be 1b 05 d1 bd
       0.22518101 -0.08626962 -0.17303993 -0.10206052
000150 87 fa 17 3d ef 7c d3 3b cc 4e b5 bc 09 fc c7 3c
       0.037104156 0.006454102 -0.0221323 0.024412172
000160 85 89 cd bc a7 a2 9d 3d 58 27 32 bd ea 1c bd bd
       -0.025089988 0.07697039 -0.043494552 -0.092340305
000170 7d b1 57 bd af f8 24 bd 1f 8d c6 bc b0 34 a8 bc
       -0.0526595 -0.040276226 -0.024237214 -0.020532936
000180 c3 33 cf bd d1 f5 a5 bd 14 f8 91 bd 0f af 1e bd
       -0.10117295 -0.081035264 -0.07127395 -0.038741168
000190 5e 15 e4 bd 17 f4 8e bd 5d 11 b2 ba 05 e5 de bc
       -0.11136888 -0.0698015 -0.0013585497 -0.027208814
0001a0 e8 83 f9 bb 8e 62 78 bc 55 d9 0b bc 1a 00 0f bd
       -0.0076146014 -0.015160216 -0.008535703 -0.034912206
0001b0 b3 6e 57 2d f4 19 0d b0 c8 b8 f7 af a0 98 f9 ad
       1.2245915e-11 -5.1332383e-10 -4.5060333e-10 -2.8375802e-11
0001c0 0d 25 28 2f 55 bb c6 ad aa 08 d7 af 4f ef c4 ac
       1.5292674e-10 -2.2593186e-11 -3.9114428e-10 -5.5972236e-12
0001d0 f4 4d 91 2f ea f7 a9 bc 51 17 1b bb 73 1f 1c bd
       2.6430735e-10 -0.020748097 -0.002366502 -0.03811593
0001e0 5c d6 6a bd 5b 46 b0 bb 23 36 0b 3d 4b 9f bc bd
       -0.057333335 -0.005379481 0.033987176 -0.0921007
0001f0 6d f2 82 bc 60 b6 f4 bc ad 2f c1 3b db d8 1f bc
       -0.015984738 -0.02987212 0.005895576 -0.009756292
000200 28 95 13 3e d7 e8 51 3c 2c 88 bc 3c 1c 41 fa 3c
       0.14412367 0.012811861 0.02301415 0.030548625
000210 26 bd 92 bd 72 8f 69 bc f1 af 97 bc 7d 97 8d bd
       -0.071649835 -0.014255391 -0.018516513 -0.0691366
000220 34 c4 9b 3b ff df a3 3d 5a 27 e5 3c ea 6e 70 bc
       0.004753614 0.08001708 0.027972866 -0.0146748815
000230 ea de 8a 3d c5 89 fa bc 6d 31 dc bc e6 97 6d 3e
       0.06780799 -0.030583272 -0.026879037 0.23202476
000240 a8 7d 33 bc f8 64 98 3c 0b f4 90 bc 3c 8d f0 bb
       -0.010955252 0.018602833 -0.017694494 -0.007341055
000250 db a6 fa 3c c6 47 bd bc b3 f8 e3 bc 53 dc a4 bd
       0.030597141 -0.023105513 -0.02782855 -0.08049836
000260 79 8e 55 bd fa 21 af 3c 15 cf 21 bd b2 eb 92 bd
       -0.052137826 0.021378506 -0.03950413 -0.071738616
000270 44 0b 7b 3d a1 5d fb 3c c9 77 d6 3c 1e 3f dd 3d
       0.06129004 0.030684294 0.026180165 0.10803054
000280 b7 43 f5 3d 0e 08 be 3b 73 44 aa 3c 9f 4e ad bc
       0.11975806 0.0057993 0.020784592 -0.021155654
000290 7c 87 52 3d cb d0 1b bd d3 02 4c 3a 72 8d b0 bb
       0.05139874 -0.038040917 0.0007782403 -0.0053879553
0002a0 ed fe 8d bc 33 cb 2d 3d 07 e2 f7 3c 24 dc 0b bd
       -0.017333472 0.042430114 0.030259145 -0.03414549
0002b0 de 8a 07 bd 84 c2 4f bd 51 77 f6 bc e2 42 a0 bd
       -0.03309142 -0.050722614 -0.030086191 -0.07825257
0002c0 2d e1 b2 bd 3e 0e c9 bc 65 2e a5 bc 77 5c c4 bc
       -0.08734355 -0.024542924 -0.020163724 -0.023969872
0002d0 bd 61 d3 bd dd d3 e5 bd 11 66 94 bc 86 d6 99 bd
       -0.103213765 -0.1122205 -0.018115075 -0.0751162
0002e0 4c eb 78 bd 95 70 7f bd 4e 2a fb 3c df 02 15 3e
       -0.06077127 -0.062363226 0.03065982 0.14551876
0002f0 92 2c a5 bd b7 c3 c0 bc c4 fd f5 bc d8 d8 aa bd
       -0.08065142 -0.023530824 -0.030028231 -0.08342141
000300 c3 95 43 3c 23 37 cd 3c 30 15 e5 bd 2e 37 a4 3c
       0.011937561 0.025050705 -0.11185682 0.020045843
000310 37 12 bc bb ba 6a 2d bd 2c 0a ab 3d 56 31 e1 3c
       -0.005739476 -0.04233811 0.083515495 0.027489346
000320 9b 1a 99 bd 98 46 6b bd bc 0c 6c 3d 94 75 75 bd
       -0.07475778 -0.05744037 0.057629332 -0.059926584
000330 26 a9 45 3d 1d 47 43 3d 0f fb 16 be f9 5a 7a bc
       0.048257016 0.04767524 -0.14744209 -0.015280479
000340 32 ec 6e bd 91 bb 79 bb 38 1e 82 bd 40 a8 c7 bd
       -0.058330722 -0.0038106183 -0.0635342 -0.09748888
000350 10 43 23 bd 35 62 b6 bd fa 91 0c be 59 ff 45 bc
       -0.039858878 -0.0890545 -0.1372756 -0.012084805
000360 03 dc 31 bd e6 2e 6f bd bc 00 13 bd bc 9e 3e bc
       -0.04342271 -0.058394335 -0.035889372 -0.011634525
000370 3b 17 16 3d c2 b4 5e bd ea 73 d4 3d 12 cf 2c 3d
       0.036643248 -0.054371603 0.10373671 0.042189665
000380 28 47 2d be 57 42 14 bc 91 bc 80 bd c5 2b 21 bd
       -0.16921675 -0.00904902 -0.06285966 -0.039348383
000390 30 3c d4 bc 02 97 f7 bc bf 7b 44 bc 83 6b 2c 3d
       -0.025907606 -0.030223373 -0.011992394 0.04209472
0003a0 eb c4 46 bc 41 91 23 bd fb 95 0f ba f9 80 12 3c
       -0.01213191 -0.039933447 -0.0005477366 0.008941882
0003b0 01 ac db bc 17 ce 46 bc 48 79 1a bc 42 26 70 bd
       -0.026815416 -0.012134097 -0.00942833 -0.058630235
0003c0 a2 8e 74 bd a7 10 aa 3c 98 31 b3 bd f6 62 01 3d
       -0.059706338 0.020759894 -0.08749694 0.031588517
0003d0 f3 27 89 3c f2 ad c2 3c 3a 25 26 bd ba 32 3a 3d
       0.016742682 0.023764584 -0.040562846 0.045458533
0003e0 8b 1e 8a 3c ee e5 d4 3d e5 0b 10 3e ee 9a 67 3d
       0.016860267 0.10395418 0.14067037 0.056544237
0003f0 93 70 15 3d f1 58 0f 3d 9d d8 8e 3c 45 41 14 3c
       0.036484312 0.03499693 0.017437274 0.009048765

features.6.bias f4 [128]
000000 5e d5 78 3e 4f 51 4c bc 8f 2b a1 3c 2a 62 8d bd
       0.24300143 -0.012470557 0.01967409 -0.06903489
000010 4c a0 90 3d 21 78 b2 3d be eb 29 3d c8 c8 b2 bb
       0.07061824 0.08714319 0.041484587 -0.005456064
000020 eb e2 b8 3d 49 d2 0a be a8 e2 97 3c 12 09 bf 3d
       0.09027656 -0.1355678 0.018540695 0.09327902
000030 f8 6a a8 3d 4d 97 69 3e 55 0c 11 3e 00 05 a9 bd
       0.08223528 0.22811623 0.1416486 -0.08252907
000040 9c b6 a4 3e 69 ed da bd 90 25 21 3e 9b db 07 3d
       0.3217057 -0.10689814 0.15736985 0.033168416
000050 a0 84 8a bd e3 60 76 b0 54 0f 83 bd d4 a7 0e be
       -0.067635775 -8.9631963e-10 -0.06399408 -0.13931209
000060 80 24 27 be ac 66 f3 bd c8 ac 0a 3e fc a3 8f 3d
       -0.16322517 -0.118848175 0.13542473 0.070136994
000070 3f 3e 23 3a 8d a0 c8 bc 00 e4 1f bb 3f 4c 61 3c
       0.0006227232 -0.02449062 -0.0024397373 0.013751089
000080 e8 45 cb 3c e1 d2 0d 3d 71 b5 37 3e d2 be f4 bc
       0.024813607 0.034624938 0.17940308 -0.029876146
000090 65 18 9d 3d 3a 50 97 bd d4 3f 01 3e 54 ea ff bc
       0.076706685 -0.07388349 0.12622005 -0.031239666
0000a0 7d 6c cb 3d ff be b6 3d f5 0f 01 3d 87 77 9d bd
       0.09932802 0.08923148 0.03150936 -0.07688814
0000b0 db 21 18 3e 70 62 02 3e 57 59 4f be 60 ed a3 bc
       0.14856665 0.12732863 -0.20248924 -0.02001065
0000c0 3f ed 77 bd 32 7a ba bd 96 ad 2f bd 9c 6c 37 3e
       -0.06052899 -0.09105338 -0.042890154 0.17912525
0000d0 12 06 94 3c cd 8e 7a 3e 0f bf c8 bd 04 24 bf bc
       0.0180693 0.24468537 -0.098020665 -0.023332603
0000e0 1c 51 2f 3e 43 73 0e be 6d d5 28 bd 08 5f cb bd
       0.17120785 -0.13911156 -0.041219164 -0.09930235
0000f0 2c 8f 92 bd 1a ad 68 bd 3e 35 e4 bc d3 3e d0 3d
       -0.07156214 -0.056805708 -0.02785742 0.10168233
000100 42 cb 58 3c 60 e7 81 3c d4 9d 5b bb 3a e9 eb bd
       0.013232054 0.015857399 -0.003351082 -0.11519094
000110 3c c1 01 be 99 bb 59 bd 17 71 1d 3c cd 45 b1 bd
       -0.1267137 -0.053157423 0.009609482 -0.086558916
000120 dd 90 c7 3e ff a2 8a bc 59 f4 57 3e 88 04 c4 bc
       0.3897771 -0.016923426 0.21089305 -0.023927942
000130 6b 14 05 3e ac e1 61 3e a1 9f 80 3d 0a f1 5d be
       0.1299607 0.22058743 0.06280447 -0.2167398
000140 a1 78 5f bd 6f c0 b5 3d a1 c7 70 be 81 b4 a5 3e
       -0.0545584 0.088745944 -0.23513652 0.32364276
000150 b5 1e b0 3d 27 f2 33 bc 92 f9 1e 3d 01 85 27 be
       0.08599607 -0.010983027 0.038812228 -0.1635933
000160 c3 f8 86 3e 95 40 18 3e 82 73 9a bd fd 04 0e be
       0.26361665 0.14868386 -0.075415626 -0.1386909
000170 99 e2 b9 bd 87 2b 4c be 15 72 81 3d 68 1b 40 3e
       -0.09076423 -0.1993848 0.063205875 0.18760455
000180 69 61 30 bd 5d 9d 0c be ae 17 44 3e 8b 77 1e 3e
       -0.043061648 -0.13731904 0.19149658 0.1547529
000190 83 fe 7f bd ba 81 58 3e 06 00 21 3e 7e 88 ea 3c
       -0.06249858 0.21143237 0.15722665 0.028629538
0001a0 2a 8b b9 3d 4b c9 cd bc 6f 68 1d 3d 93 48 c0 3e
       0.090597466 -0.025120398 0.038429674 0.3755537
0001b0 f1 8f 15 3e 2d 43 c4 bd f3 5b 68 3e e6 93 1a be
       0.1460569 -0.09583125 0.22691326 -0.15095481
0001c0 3d ef ac bd 41 64 62 3e c6 9d 6d 3d c8 44 d6 bd
       -0.084440686 0.22108556 0.058011793 -0.10462338
0001d0 f3 8c 67 3d 37 05 75 3d 76 8f 51 bd 69 2a 73 bd
       0.056530904 0.059819426 -0.051162206 -0.059366617
0001e0 6a ed 82 bd 55 08 be bd f7 03 35 3e c1 db 13 be
       -0.063929394 -0.09278933 0.17677294 -0.14439298
0001f0 bf fe 50 bd 84 f4 1d 3e 42 00 42 3e 46 4e da 3d
       -0.051024195 0.15425307 0.18945411 0.10659461

classifier.0.weight f4 [256, 512]
000000 2f a7 35 3b 8e 6a 33 bc a9 e1 f8 bb 97 88 b8 3c
       0.0027718057 -0.010950698 -0.00759526 0.022526069
000010 04 6e 73 bc b0 34 8f 3b 6f 2b a3 bc b6 29 ec 3b
       -0.014857773 0.0043702945 -0.019918172 0.007207121
000020 df a1 0f bd 6b f7 7a bc ec b7 4e bd 23 40 80 bd
       -0.03506648 -0.015317778 -0.05046837 -0.06262233
000030 19 02 e8 3c 8d e0 3b bc 1d 91 c1 3d c8 16 aa 3d
       0.028321313 -0.011467111 0.09451506 0.083051264
000040 5a d2 85 bb 6f 91 96 bb ad ce 07 3d 28 65 30 3d
       -0.0040839138 -0.0045949738 0.033156086 0.04306522
000050 31 54 9c bb 49 65 1a 3d 5d 87 76 bd 80 6d 07 bd
       -0.0047707786 0.03769425 -0.060187686 -0.03306341
000060 d1 e0 00 bd 0a 69 64 bd 3d 3f 75 bd d0 22 1c bd
       -0.0314644 -0.055764236 -0.05987476 -0.038119137
000070 24 b6 e9 3c 6d f9 07 3c f3 99 5e 3d 1c fc 14 bc
       0.028529234 0.008299214 0.054346036 -0.009093311
000080 51 ed 9f bc ab 3a 66 3b 36 40 52 bd e9 39 32 bd
       -0.019522341 0.0035130184 -0.051330768 -0.04351226
000090 6b 4e 2e bd f3 31 ca bc 1b 15 80 bd 8c f0 4d bd
       -0.042555254 -0.02468202 -0.062540255 -0.05027823
0000a0 d2 4b f9 bc 76 ef b6 bd 5d 2c c0 bd 76 9f 6d bd
       -0.030431662 -0.08932392 -0.093834616 -0.058013402
0000b0 1c ab ad 3c 43 a6 3a 3c 11 32 10 3c f7 42 50 3d
       0.021199755 0.011392179 0.008800999 0.050845113
0000c0 76 65 87 3c a2 2f a7 bc af 79 28 bc 08 3f 87 bd
       0.016527873 -0.020408455 -0.010282918 -0.06603819
0000d0 98 3b 2c 3c 59 08 08 bc e9 00 a9 bc 12 e7 2e bc
       0.010512255 -0.0083027715 -0.020630317 -0.010675209
0000e0 ea 9f 89 bd 1a d5 e2 bc f3 76 85 bc 83 00 82 bc
       -0.06719954 -0.027689505 -0.016292071 -0.015869385
0000f0 91 fd de bc 52 b9 8b bd 0b cf fd 3b 32 01 6b bc
       -0.02722052 -0.068224564 0.0077456287 -0.014343547
000100 39 d3 cd 3c 1f 2f c5 3c fd 7a 28 bd 83 53 18 bd
       0.025125133 0.02407032 -0.041132916 -0.037189018
000110 d6 a5 f2 3c 11 c5 d1 3c 37 78 2a 3d b5 61 ea ba
       0.029620092 0.025606664 0.041618552 -0.0017881902
000120 59 a0 9f 3c 32 66 a8 3c 5b d3 21 3d 5e ac 31 bc
       0.01948564 0.020556543 0.039508205 -0.010844318
000130 c8 2c d8 3c 05 b5 27 3d 4d 33 33 3c 1e 26 98 3c
       0.02638854 0.040944118 0.010937524 0.018572863
000140 9c f7 6b 3a 6d 42 a7 bc c2 74 90 3c b4 b4 63 bd
       0.0009001435 -0.020417416 0.0176338 -0.055592254
000150 ea 3c 1d 2f 9a 75 a8 2e 32 6d 2e 2f 84 09 74 ae
       1.4300708e-10 7.660646e-11 1.5864002e-10 -5.548763e-11
000160 86 00 c8 3c 2e 05 83 bc 0b 4d 05 3c 5b 44 60 bd
       0.024414312 -0.01599368 0.008136044 -0.05475269
000170 67 21 6d 3d f2 9e 6f bd b0 a6 9d b7 94 43 5b bd
       0.057893183 -0.05850119 -1.8793478e-05 -0.053531244
000180 e6 0b 67 bd 0c 63 7b bd d4 75 93 bd 26 4e 2f bd
       -0.05640783 -0.061373755 -0.07200208 -0.042799138
000190 72 8b 10 3d e4 30 8b 3c df 54 71 bb 8c ab d1 3b
       0.035289235 0.016991086 -0.0036824269 0.006398624
0001a0 64 04 14 b9 5d a8 da 3c 71 bf 00 bd 52 e2 b9 3c
       -0.00014116016 0.02669161 -0.031432573 0.022690926
0001b0 68 c8 92 bc 7f 39 a9 b9 72 4c eb 3c 85 c0 91 3c
       -0.017917827 -0.0003227703 0.028722975 0.017791996
0001c0 98 ac 16 3c b8 1e 1d 3d 65 b7 97 bc 25 3c 1a bc
       0.009196423 0.038359374 -0.018520067 -0.009413754
0001d0 74 7e 49 bc d6 d3 1e 3d 61 f1 0d bb 1c 09 bc 3d
       -0.012298215 0.03877624 -0.0021658766 0.09181425
0001e0 48 6e 3e 3d 84 f5 c6 bc 93 ab 4a 3d 82 a0 0a bd
       0.04649189 -0.024286993 0.049480032 -0.03384448
0001f0 fb 15 2d 3c a2 c6 9f bc f5 df b8 bb b3 06 46 bc
       0.010564323 -0.019503895 -0.005641932 -0.012086558
000200 32 77 8f 3c 19 05 82 3c 7b da 18 3b 1a 3d 9f 3b
       0.017512891 0.015871571 0.0023323584 0.004859579
000210 cb 87 74 bc 78 7f 52 bb 23 63 25 bc 65 dd 5a bd
       -0.014924954 -0.0032119434 -0.010094437 -0.053433795
000220 e7 fa aa 3a 46 c6 c8 3d 88 0d ed bb 44 f9 be 3d
       0.0013044745 0.09803443 -0.007234279 0.093248874
000230 62 7e 06 bd 69 ab 40 bb 69 98 00 bd 0b 7d ee 3a
       -0.03283537 -0.0029399043 -0.03139535 0.0018195225
000240 ee 3c 86 bc b3 ed 1f bd c8 aa 97 3c 28 9f 87 3d
       -0.016386475 -0.039045047 0.018514052 0.066221535
000250 57 83 0c bd e8 a8 bf bc 81 c4 44 bd 52 1f 3e 3c
       -0.034304943 -0.02339597 -0.048038963 0.011604147
000260 2e b6 af 3c 1a 62 f7 bc 87 9d 00 bd 71 41 69 bd
       0.021449175 -0.030198146 -0.03140023 -0.056947175
000270 66 52 ab bc 91 7e 71 b9 64 04 2b bd 70 9e f3 bc
       -0.020913314 -0.000230307 -0.041752234 -0.029738635
000280 30 16 8e 3c 7b bb f5 3c 05 e2 ab 3b 0d 16 e2 bb
       0.017344564 0.029996624 0.0052454495 -0.0068996013
000290 e5 f7 04 bc 97 6f 93 bc 98 6d f1 bc bc 56 f6 bc
       -0.008115743 -0.017997546 -0.029471204 -0.030070655
0002a0 08 39 ce bc 13 fa cb 3b 9e 56 c2 bc 21 1e 10 bd
       -0.025173679 0.0062248795 -0.023722943 -0.035184983
0002b0 98 8f 76 3d 13 71 0e 3c 14 f4 13 bc a1 5a bd bc
       0.060195535 0.008693951 -0.009030361 -0.023114504
0002c0 2b bd 5e bc 75 7e 7e 3c 12 15 8a 3c a8 1b e3 3c
       -0.013594906 0.015533079 0.01685575 0.027723148
0002d0 a8 ae 06 3d 81 07 48 bc ca f5 73 bc 38 d5 99 bc
       0.03288141 -0.01220882 -0.014890144 -0.018778428
0002e0 8f 75 e1 bc a1 19 18 bb 31 7d c0 bc 2a 80 d1 b9
       -0.027521877 -0.0023208635 -0.023497196 -0.00039959076
0002f0 6c bc f9 3c 98 59 c9 bc 48 c6 84 bc 7f 06 ce 3c
       0.030485354 -0.024578854 -0.01620783 0.025149582
000300 7b f3 b5 3c 6a 9b 39 bd 1f 2f 4e 3d c1 b3 74 bd
       0.022210827 -0.04531423 0.050337907 -0.05974174
000310 fd d0 11 3d 25 30 38 bd 19 2f 42 3a 72 e5 39 bd
       0.035599697 -0.04496779 0.0007407531 -0.04538483
000320 78 8a f2 3a 66 72 22 bc 10 ec ca bc 25 c6 a2 ba
       0.0018504402 -0.00991497 -0.024770766 -0.0012418671
000330 19 a5 6f 3c 95 d4 94 3d c2 fe b7 bc e7 2d 2f bd
       0.014626765 0.07267109 -0.022460345 -0.042768385
000340 2d da 7d 3d e9 c1 07 bd 72 79 c7 3d 82 b0 6b bd
       0.061975647 -0.03314391 0.09739961 -0.057541378
000350 f5 55 b3 bc 24 25 de bc 71 61 13 bc cb 03 51 bc
       -0.021891573 -0.02711732 -0.0089954 -0.012757252
000360 96 1f c6 3c 0b c8 01 bd 28 80 16 3d d3 e6 35 bd
       0.024184983 -0.031684916 0.036743313 -0.044409584
000370 09 b8 ee bb 81 14 0d bd 65 ff 56 bc 27 ee 0f bc
       -0.0072851223 -0.034443382 -0.013122414 -0.008784807
000380 87 bb 89 3d a7 7c 13 bb af 2e 80 3d b1 28 75 3c
       0.06725221 -0.0022504719 0.06258904 0.014963315
000390 ab e7 33 3a 3e 2b 2b bd 6a 23 07 bd e1 2c 9b bd
       0.00068628293 -0.041789286 -0.032992758 -0.07576919
0003a0 f7 65 fd bc 4e dc 82 bc 17 fb ab 3c 08 37 71 3c
       -0.03093241 -0.01597419 0.020993752 0.014722593
0003b0 7a 20 0d bd b5 79 93 3c bf 9d d9 3a 3e 27 ab bc
       -0.0344548 0.01800237 0.0016602798 -0.020892736
0003c0 19 c6 f2 3b 8e db e3 bc cb 03 c4 3c 38 bb af bb
       0.007408869 -0.027814653 0.02392759 -0.0053628944
0003d0 23 1a 79 3b ad 42 90 3b 83 ee 34 3a 6c 3c d7 bc
       0.0038009963 0.0044024796 0.0006901996 -0.026273929
0003e0 ef cf 6f bd 16 47 c6 bc 89 49 8a bc 5f ac 4f bd
       -0.05854791 -0.024203818 -0.016880767 -0.050701495
0003f0 e1 58 b4 bc 13 ee 98 bc 92 ae f7 bc 56 35 0b bd
       -0.022015037 -0.01866821 -0.030234609 -0.033986412

classifier.0.bias f4 [256]
000000 c9 f6 42 3d d7 b9 9b 3c c8 10 3e 3c de a3 61 3b
       0.047598634 0.019009514 0.011600681 0.0034429948
000010 0d 87 97 3d e5 0f eb 3d 92 d8 65 3c 2b 09 7f 3d
       0.07398806 0.11477641 0.014028685 0.062264603
000020 89 6d 26 3d f9 49 c8 3c 51 93 3d 3d e0 39 5b 3d
       0.040631805 0.024449335 0.04628307 0.05352199
000030 87 b9 73 3d ce 75 f8 3d c2 23 bf 3d 4a 34 ac 3d
       0.059503105 0.121318445 0.09332992 0.08408411
000040 77 16 f9 3d 5c 78 53 3e c1 23 81 3e 17 c2 86 3d
       0.12162488 0.20651382 0.2522259 0.065799884
000050 27 64 1b 3e eb f1 32 3d 49 bb 1c 3d 1a 1b b6 3d
       0.15174924 0.043687742 0.038264547 0.08891888
000060 9d 32 65 3d ca 9f 32 bc a5 1d 4b 3e 85 4a 50 bd
       0.05595647 -0.0109023545 0.19835527 -0.050852317
000070 a3 7c 3b 3c 7b 82 41 3e f4 c3 34 3d 0a 19 41 3e
       0.01144329 0.1889743 0.044132188 0.18857208
000080 af 86 8b 3d f8 02 8d 3d 85 79 27 3e e1 4c 52 3e
       0.06812798 0.06885332 0.1635495 0.2053714
000090 b4 00 15 3d 18 9c 6c 3d bb 5e 14 3d 32 e8 ac 3d
       0.036377624 0.05776605 0.036223155 0.08442725
0000a0 de 10 ea 3d 38 01 89 bd e2 a0 82 3d bf 20 a8 3d
       0.114289984 -0.066896856 0.06378342 0.08209371
0000b0 ad c2 91 3d 38 37 30 3e 53 60 28 3e 96 32 a3 3d
       0.071172096 0.17208564 0.16442995 0.07968633
0000c0 03 78 10 3e 58 cf c3 3c df 9e de 3c 6e ed 61 3d
       0.14108281 0.02390258 0.027175365 0.05515807
0000d0 b0 ff 82 3d 93 1b 19 3b cf be 83 3d 1a 35 2c 3e
       0.06396425 0.0023362383 0.06432878 0.16817132
0000e0 bd ab 98 3d 57 d5 55 ba 40 10 55 bd 23 4a ab 3d
       0.074546315 -0.0008157095 -0.05201745 0.0836375
0000f0 c5 81 29 3d 43 c2 8f 3d e4 5c f6 3d a9 0a 86 3d
       0.041383523 0.07019474 0.12029436 0.06545002
000100 a4 f6 8c 3d 98 95 a1 3c 70 7f 9a 3c 7c a7 04 3e
       0.068829805 0.019724652 0.018859595 0.12954515
000110 7d f6 70 3e 6a 73 76 3d c8 04 26 3d 6d e6 d1 3d
       0.23531528 0.06016866 0.040531904 0.10249028
000120 eb d5 5e bd 91 97 dd 3b 7e d0 84 3d 1c f7 d7 3d
       -0.054403227 0.006762453 0.06485079 0.10545179
000130 6b 57 87 3d 19 3d 5e bd 57 7a 0d 3e 02 95 9c 3e
       0.066084705 -0.054257486 0.138162 0.30582434
000140 5d 63 a6 3b 09 e7 3a 3e 46 d3 df 3d 24 2d 0b 3d
       0.005077763 0.18252195 0.10928969 0.033978596
000150 4b 1f 93 3e 02 b2 e5 3d 5a c0 ff bc 92 5f 63 3d
       0.28734812 0.11215593 -0.03121965 0.055511065
000160 0f 47 db bc d8 f0 14 3d e0 33 81 3e ea d5 81 3d
       -0.026767282 0.0363625 0.2523489 0.06339629
000170 68 fd 32 3d c0 cf d8 3d 71 68 da bc 1c bb a4 3c
       0.0436987 0.105865 -0.02666113 0.020108752
000180 b5 a8 c6 3d ec 3a 16 3d 45 8a c1 3d 9c 41 82 3c
       0.09700147 0.036677286 0.09450201 0.015900426
000190 9e fd 49 3d 58 41 10 3e 42 ad bc 3d 9b c0 5b 3d
       0.049314134 0.14087427 0.09212734 0.05365048
0001a0 5a 6e d1 3c c2 d9 41 3d fb 60 2d bc ea ab 1a 3e
       0.025565315 0.04732681 -0.010582204 0.15104643
0001b0 6f e1 9e 3d 51 de f8 3d 71 e3 ae 3d f8 0a c2 3b
       0.07757842 0.121517785 0.08539475 0.0059217177
0001c0 04 a9 9b bc 69 c8 2b bc 1c e2 1b 3e a5 48 23 3e
       -0.019001491 -0.010484793 0.15222973 0.1594568
0001d0 16 e5 80 3d 43 cb 87 3d 3b 88 c2 3d c7 1a 1e 3e
       0.06293695 0.06630566 0.0949864 0.15439902
0001e0 f5 4d 61 3d 2c 22 6d 3d 61 17 9b 3d fd 5b 70 3d
       0.055005986 0.057893917 0.075728185 0.058681477
0001f0 c4 5d 1f 3d 63 95 77 3d ab 6b 20 3d 29 55 88 bd
       0.03890778 0.0604452 0.03916518 -0.06656868
000200 73 37 f4 3c c5 10 04 3e 8b 3a b6 3d c8 15 89 3c
       0.029811596 0.12897022 0.08897885 0.016734019
000210 8c 7d 13 bb 70 6f 03 3e ba bf ab 3b 83 e3 f5 3d
       -0.0022505252 0.12835479 0.0052413614 0.12006285
000220 79 93 8a bd 90 14 18 3d 9f aa 2c bd ac 57 68 3d
       -0.067664094 0.037128985 -0.042154904 0.056724235
000230 3e f8 5b bd b2 7c 98 bd 8a f5 61 3d d9 5f b3 3c
       -0.05370354 -0.07445659 0.055165805 0.02189629
000240 fd 88 21 bc c1 d9 c5 3d 00 f6 5f 3b 48 48 4e 3d
       -0.009859321 0.09660674 0.0034173727 0.0503619
000250 59 3c 0a 3e 2e 55 e8 3d 9c 48 36 3d df 54 1e 3d
       0.13499583 0.11344372 0.04450284 0.038655158
000260 d3 98 e7 3d 4d dc 13 3e e0 1a 36 bb 56 2e 09 3d
       0.11308446 0.14439507 -0.0027787015 0.033491455
000270 d1 44 4c 3d 89 af c6 3d 74 c0 70 3e 06 d9 77 3d
       0.049870316 0.097014494 0.23510915 0.060509704
000280 06 67 e9 3d 15 c2 a9 3d c6 6f d8 3d b7 aa 46 bc
       0.11396603 0.08288971 0.10568194 -0.0121256625
000290 6b 5e b4 bd bf 6e 04 3e 7b ac 2a 3e f3 33 39 3d
       -0.08807071 0.12932871 0.16667359 0.04521556
0002a0 17 12 aa 3d 57 ca 1b 3d 23 29 fa 3d 20 ae dd bc
       0.083042316 0.038034763 0.122148775 -0.027060568
0002b0 09 a4 da 3d fb f7 97 3d 32 1c 33 ba f4 ec 6b 3d
       0.106758185 0.074203454 -0.00068325095 0.057599023
0002c0 85 a0 14 3e 91 fb 71 3d 96 82 55 3e 0a a1 4c 3d
       0.14514358 0.059077803 0.20850596 0.049958266
0002d0 2f 43 1f 3e 89 c4 92 3d a2 19 82 3c 79 07 b4 3d
       0.15552972 0.07166392 0.015881363 0.08790488
0002e0 97 57 e7 3a dc bd 2c 3d d4 36 ce bd bc 9b 0f 3b
       0.0017650005 0.04217325 -0.100690514 0.0021912893
0002f0 45 31 18 3e 55 38 25 bd 48 30 02 3d 26 06 cd 3d
       0.14862545 -0.040336926 0.031784326 0.10010938
000300 ca 57 76 3d 98 2c e8 3d 5b 86 9c bb 95 ac b1 3d
       0.060142316 0.113366306 -0.0047767586 0.086754955
000310 5f 84 02 3e c1 8e 0c 3e 66 5f d6 bc fb ef 60 3e
       0.12745808 0.13726331 -0.026168536 0.21966545
000320 4f bf 84 3d 94 7a 3e 3e 2f 2f 5b bd 80 85 8d 3d
       0.06481802 0.18601447 -0.053511795 0.06910229
000330 89 8f 3c 3d f5 95 87 bc 80 4f 88 3d 94 79 09 3e
       0.046035323 -0.016550997 0.066557884 0.13425285
000340 d2 16 10 3d 92 55 94 3d d0 ef d9 3d c0 53 89 3d
       0.035178013 0.07242884 0.10641444 0.06705427
000350 81 f8 88 3d 5d bc 90 3d e7 81 14 3d de 17 1c 3e
       0.06688023 0.070671774 0.036256697 0.1524348
000360 fe 46 c0 ba 92 35 be 3d 6b 17 7c 3c 0b f0 06 3e
       -0.0014669595 0.092875615 0.015386443 0.13177507
000370 b2 6b 68 3d a2 f4 c3 3d 66 58 9c bb d4 46 04 3e
       0.05674333 0.095681444 -0.00477128 0.12917644
000380 7c 6d 16 3c f3 ce 07 3e 5e cc 37 3e 44 b4 0b 3e
       0.009181377 0.13262539 0.17949054 0.13642985
000390 61 5a 62 3d c1 18 42 3e 0f b2 05 3d ab 8a 41 3b
       0.055261973 0.18954755 0.032640513 0.0029532115
0003a0 76 0c a3 3c 8c f9 b3 3d 3d 78 4b 3d ae c6 b2 3c
       0.019903403 0.08787832 0.049675215 0.021823253
0003b0 d0 e5 b8 bc e8 b2 30 bd 8c 5d f6 3d 99 7f 89 bc
       -0.02257052 -0.04313937 0.120295614 -0.016784476
0003c0 e1 e8 f9 3c 30 7f da 3e cc 7a 22 3e d5 68 a0 3b
       0.030506553 0.4267516 0.15867156 0.0048953095
0003d0 7a f2 74 bc 55 16 7f 3d 3e d2 89 3b f5 13 9b 3d
       -0.014950389 0.062277157 0.004205971 0.07572166
0003e0 7d 27 97 3d f0 50 e6 3c 67 71 6b bd f8 1c 8c bd
       0.07380579 0.028114766 -0.057481196 -0.06841463
0003f0 9c 86 8d 3d ae 77 67 3d c9 a8 e1 3d 90 8d 68 3e
       0.0691044 0.05651062 0.11018521 0.22710252

classifier.2.weight f4 [10, 256]
000000 71 fa 9f be 1d 6f c5 3d 84 6a 6c bc f0 a9 0f bd
       -0.3124576 0.09640334 -0.014429692 -0.035074174
000010 6e 2e be 3d 22 59 86 bd ae 58 4c be 60 62 a1 bd
       0.092861995 -0.065599695 -0.19955704 -0.07880092
000020 0b c9 93 3e 7b ed 5d bd bc 70 b9 bd e5 bc 8a 3e
       0.2886432 -0.054181557 -0.090547055 0.2709724
000030 b6 70 ae 3e 29 42 45 be 56 09 41 3e db ef a3 bd
       0.34070367 -0.1926352 0.18851218 -0.08004733
000040 a3 7c 19 3e 9d 01 88 be 18 c0 86 be 12 b1 bc 3b
       0.14988951 -0.2656373 -0.2631843 0.005758413
000050 29 f3 4a 3e e7 f2 c9 3e 21 7d 83 bb 72 30 26 be
       0.1981932 0.39443132 -0.0040127193 -0.16229418
000060 eb e8 5d bd aa 56 29 3e 38 2c 64 3e e4 25 ea bd
       -0.054177206 0.16536966 0.22282493 -0.11433008
000070 c4 0c 49 bc 15 ad 25 be 8d 79 1e 3d d4 03 9b bd
       -0.01227111 -0.16179307 0.03869014 -0.075690895
000080 7f 68 17 be 58 58 0a be 8b 29 c3 bd 9a 45 31 3e
       -0.14785956 -0.13510263 -0.09529408 0.17311707
000090 af 8c 64 bd f1 a4 e0 3c 03 b4 00 bd 0c e5 59 bc
       -0.05579823 0.0274224 -0.031421673 -0.013299238
0000a0 41 d9 05 3e f5 1a ff bd 8c 14 27 bd 09 f1 db bd
       0.13071157 -0.124563135 -0.04079108 -0.10739333
0000b0 d3 b0 1f 3e 99 08 33 3e d9 fb 38 3e 6a 71 30 bd
       0.15594797 0.17483748 0.18064822 -0.04307691
0000c0 32 c2 27 3e 2d c5 be 3e 1d c0 08 be 67 2e 1d 3e
       0.16382673 0.37259808 -0.13354535 0.15349732
0000d0 77 a7 85 3d 9d eb 10 be bf e6 46 3e 8f a0 85 be
       0.06526082 -0.1415238 0.1942396 -0.2609906
0000e0 93 db 00 3e 03 3e 9f bd 48 96 32 ba b1 67 f0 bd
       0.12583761 -0.077755 -0.0006812555 -0.117385276
0000f0 62 13 07 3e 67 9d 75 3d 8b 13 4c be f9 fc 41 3e
       0.13190988 0.059964564 -0.1992933 0.18944158
000100 8f 59 e3 3e c9 c5 08 3f 76 9a 06 3f 8a fa 34 bc
       0.44404265 0.53426796 0.5257944 -0.011046061
000110 6d fe 19 3d 9e 9e 62 3d 95 1c fb 3d f9 ad 0a be
       0.037596155 0.05532705 0.12261311 -0.13542928
000120 06 45 ee bd cf 0c a8 3e 79 0e d9 3d 47 64 a7 bd
       -0.11634259 0.32822272 0.105984636 -0.08173423
000130 d5 d0 42 be 5b 00 f3 bd d2 f8 17 3c cd 99 9e be
       -0.19024976 -0.11865302 0.009275632 -0.30976716
000140 8c 8f 0f be a0 e4 98 be 0e 1a da bc ab 29 91 bd
       -0.14019603 -0.29861927 -0.026623752 -0.07088026
000150 fb bd 20 3e 57 1e 8a bd 9d 56 04 3d 72 9d a6 bd
       0.15697472 -0.06744068 0.032309163 -0.08135499
000160 18 50 d9 3d f9 21 e1 3d f7 55 01 3e cd c4 1d 3e
       0.1061098 0.10992808 0.12630449 0.15407105
000170 61 9d 74 bd a8 10 11 3e 18 b2 d3 bc b0 34 58 bd
       -0.0597204 0.1416651 -0.025841758 -0.05278462
000180 ab e3 c5 bc fb 14 d2 3e 6e ed b0 bd 1b 99 d9 bd
       -0.024156412 0.41031632 -0.08639036 -0.10624906
000190 1e eb 42 be ce a6 3c be 4e dc 7b 3d 34 42 81 3b
       -0.19035003 -0.18423006 0.061489396 0.0039446596
0001a0 00 14 8e bd ba 15 88 3d a8 e5 fc 3d a2 87 f5 3d
       -0.069374084 0.06644769 0.12348491 0.119887605
0001b0 22 7c 8c be b3 a9 00 3e 5e 01 1d be e2 22 3c 3d
       -0.27438456 0.12564735 -0.15332553 0.045931704
0001c0 ad 8e ee 3d b2 13 dc bd dd d7 87 3c 7f bd 6a be
       0.11648307 -0.10745944 0.016582424 -0.2292385
0001d0 27 3b 1f be b0 6e 40 3e b7 a0 de 3d 9b dd 0e 3e
       -0.15549909 0.18792224 0.10870498 0.13951723
0001e0 45 b1 26 be d2 03 df 3d f8 20 d0 3d ae 34 e0 3c
       -0.1627856 0.108894005 0.10162538 0.02736887
0001f0 ba a1 80 bd d7 6b 59 3d 7a 58 4d 3e 93 26 0d bb
       -0.06280847 0.05308136 0.20053282 -0.0021537885
000200 ff 23 40 bd ac 5d 94 3c e9 28 33 be e3 2c 34 3e
       -0.04690933 0.018111072 -0.17496075 0.17595248
000210 f2 0c 52 be b4 d1 d2 3c 8b 15 d9 3d 47 ea f0 bd
       -0.2051275 0.02573476 0.10599812 -0.11763435
000220 e3 bb f6 bd 23 0e 6e 3e 62 f2 c8 bd 6b d8 95 3e
       -0.12047555 0.2324758 -0.09811856 0.29266676
000230 30 ec 92 bc 42 e5 d4 bd 62 6f 2e be 3e f0 8e 3e
       -0.017934889 -0.1039529 -0.17034677 0.27917665
000240 b3 39 0e be 20 ae aa bd 5a 07 34 be 70 4a 8d 3e
       -0.13889198 -0.08333993 -0.1758093 0.27595854
000250 b0 43 25 3d 6e 50 2f be d0 d1 9d bd b8 19 52 3e
       0.040347755 -0.17120525 -0.07706034 0.20517623
000260 b5 43 db bd 35 c3 83 be 0f f0 d3 bc ed 8d 94 bd
       -0.107062735 -0.2573487 -0.025871305 -0.07253633
000270 62 bf 26 3e 4a 5f 1e 3c 1f 10 7d be f9 ba 05 bd
       0.16283944 0.009666273 -0.24713181 -0.032649014
000280 e9 b2 37 be 73 29 f0 3d 0f 5f 83 be ca 8e 03 be
       -0.17939343 0.11726656 -0.2565846 -0.12847438
000290 30 1f ad bd 7c 33 66 3d 0c 64 65 3e f1 1f 7d bd
       -0.08453214 0.056201443 0.22401446 -0.06179804
0002a0 63 c3 46 be 5c ad cb 3c 40 b5 38 3d 59 ad d2 3d
       -0.19410472 0.024862938 0.04509473 0.1028697
0002b0 c8 7b 6a be 29 17 33 3e ed c1 e7 bd a2 2a 10 be
       -0.22898781 0.17489304 -0.11316285 -0.14078763
0002c0 b8 d6 a7 3d 36 51 f2 bd 92 4d b0 bd a6 fd 1a 3d
       0.08195251 -0.11831896 -0.08608545 0.037839554
0002d0 49 aa 31 be b0 e1 98 3e 27 43 c5 bd b5 79 10 bd
       -0.17350115 0.29859686 -0.09631949 -0.03527232
0002e0 50 40 41 3d 65 95 35 be 49 c2 1e bd ce 93 10 be
       0.047180474 -0.1773277 -0.038759504 -0.14118883
0002f0 df 35 1a 3d 77 1f 80 bd 51 12 23 3e 42 77 54 3e
       0.03764903 -0.062560014 0.15924956 0.20748618
000300 6e e9 1b be 34 9c b7 bd dc 1e ae bd ab bd c5 3e
       -0.15225765 -0.0896534 -0.0850198 0.38621268
000310 76 e1 85 bd 93 b2 3d 3d 11 cd 46 bc 93 ce 1a 3e
       -0.06537144 0.04631288 -0.012133853 0.15117864
000320 b1 48 1e 3e 36 1a dd 3d ef 5e 8e 3d a9 99 bf 3e
       0.15457417 0.10796015 0.06951701 0.3742192
000330 5f 16 70 bd 65 c7 fa bd 6a 04 9f bd 3e 00 9f bc
       -0.058615085 -0.12245063 -0.07764514 -0.019409295
000340 3c cf 57 be 0b 16 d7 3d 89 cd 5d 3e 1a c8 b3 bd
       -0.21075147 0.10502251 0.21660437 -0.08778401
000350 8e 41 38 3e d3 66 09 3e d7 d0 87 be 27 2b 1c be
       0.17993757 0.1341813 -0.2652652 -0.15250836
000360 c1 d7 a3 bd 12 56 09 3e 55 0c 75 bd f8 b7 80 3e
       -0.08000136 0.1341174 -0.059826214 0.25140357
000370 ad 2d 82 3e f8 92 88 3e 46 64 9a 3c 4d 73 1d 3e
       0.25425473 0.26674628 0.018846642 0.15376015
000380 cc 4d 2c be bf 2d fb 3c 61 a6 57 be 0c d4 d6 3d
       -0.16826552 0.030661462 -0.21059562 0.104896635
000390 b2 ff 0d be 04 14 29 bd 6c 36 16 bd eb c4 93 3e
       -0.13867071 -0.041278854 -0.036672994 0.28861174
0003a0 df c3 37 3e aa 20 cf bd 8d 36 ad bd aa 34 2d be
       0.17945813 -0.10113652 -0.0845767 -0.16914621
0003b0 9d 75 5f be e0 60 28 be 56 2e 19 be 5f a3 c8 bd
       -0.2182221 -0.16443205 -0.14959082 -0.097967856
0003c0 73 c0 ea 3d 86 f0 cc be 13 e3 8e be 07 a3 91 bd
       0.11462488 -0.40027255 -0.2790762 -0.07111173
0003d0 cd 65 10 bd fe 7e b0 bd 7d e6 07 bd ce 5a 0a be
       -0.035253335 -0.08617972 -0.033178795 -0.13511202
0003e0 bd 18 b6 3e 5c 46 96 bd 8d 1e 73 be 68 e3 77 3c
       0.3556575 -0.07337639 -0.23742123 0.0151299015
0003f0 39 eb 5d be e7 5b 16 3e 15 8a e1 3d d6 3c 15 3e
       -0.21671762 0.14683495 0.11012665 0.14573988

classifier.2.bias f4 [10]
000000 8c 70 15 3d 63 5b 33 bf 5f c7 0c be 71 ca cd 3e
       0.036484286 -0.7006132 -0.13747929 0.40193513
000010 3c c0 b9 3e a7 48 0c bd 0f 56 28 3e de 0d 58 bd
       0.36279476 -0.034248974 0.16439079 -0.0527476
000020 0b 6d 61 3c 13 36 5e bd
       0.013758908 -0.054250788
